notebooks/hana/best_model.pt (torch, 247541 bytes, 13 tensors)

net.0.weight f4 [256, 100]
0	0xbe1bc628	-0.1521231
1	0xbd2129ef	-0.03934663
2	0x3d0f1c74	0.034939244
3	0xbcb0f558	-0.021601364
4	0x3e746f03	0.23870473
5	0xbb5a760a	-0.0033334517
6	0xbdc376ec	-0.09544167
7	0xbd90ca17	-0.070697956
8	0x3c9997cf	0.018749146
9	0xbdc1ae5e	-0.09457086
10	0xbe81b0e0	-0.25330257
11	0xbc802106	-0.015640747
12	0xbdbc3049	-0.09188897
13	0x3d79f71f	0.06102669
14	0xbda77fd3	-0.081786774
15	0xbcf47366	-0.029840183
16	0x3c4c3a15	0.01246502
17	0xbc4639db	-0.012098755
18	0xbd9e39d8	-0.077258766
19	0xbd17ac11	-0.03702933
20	0xbdc40e23	-0.09573009
21	0x3d02c6f1	0.031928007
22	0xbc1daa8e	-0.009623183
23	0x3b03d86b	0.0020118009
24	0x3debb7af	0.11509644
25	0xbcccf78f	-0.025020389
26	0xbe18e619	-0.14931525
27	0xbd6afdd9	-0.057370994
28	0xbdf297ce	-0.11845361
29	0x3d4408b2	0.047859855
30	0xbc9c2de2	-0.019064847
31	0xbc93be24	-0.018035002
32	0xbde27464	-0.11057356
33	0xbc1aeee5	-0.009456371
34	0xbdf376fa	-0.11887927
35	0x3c6fdc1b	0.01463988
36	0xbd14c226	-0.036317967
37	0x3dbe792a	0.09300454
38	0x3cbbfcf9	0.022947775
39	0x3cc084df	0.023500858
40	0x3e60ccd2	0.21953133
41	0xbdcd3920	-0.10020661
42	0x3e12478d	0.14285107
43	0x3e157f56	0.14599356
44	0x3db44388	0.08801943
45	0xbda4efc2	-0.08053543
46	0x3d7d9ad4	0.061915234
47	0xbdd1e797	-0.102492504
48	0xbdd3073e	-0.10304116
49	0xbd2bdffd	-0.04196166
50	0xbd9abc0a	-0.07555397
51	0x3daaa949	0.0833307
52	0x3e018804	0.12649542
53	0xbd5bf019	-0.05369577
54	0x3d433101	0.047654156
55	0x3dbe9baa	0.09307034
56	0x3d5de825	0.05417647
57	0xbd7ccd5e	-0.06171929
58	0x3e14a70d	0.1451685
59	0x3e5867d5	0.21133359
60	0xbd3ad252	-0.045610733
61	0x3d0a147b	0.033710938
62	0x3da9de01	0.08294297
63	0x3e41ab0a	0.18912902
64	0xbd673e3e	-0.056455843
65	0x3d8cb900	0.068712234
66	0xbdc3a88a	-0.09553631
67	0x3e0b1ab2	0.13584402
68	0x3df9d332	0.121984854
69	0x3df6862b	0.12037309
70	0x3e7ce6ac	0.2469737
71	0x3dff7f1d	0.12475417
72	0xbebbfd20	-0.36716557
73	0x3d0c3c2f	0.034237083
74	0x3db603aa	0.088874176
75	0x3d4ada3c	0.04952453
76	0x3d8f73c8	0.070045054
77	0x3e7de765	0.24795301
78	0x3e39d969	0.18149342
79	0xbdebec71	-0.11519707
80	0xbd2b20f4	-0.041779473
81	0xbcc51eb6	-0.024062496
82	0x3da52cc9	0.08065183
83	0x3e08e7d0	0.1336968
84	0x3e36c4b4	0.17848474
85	0xbdf657dc	-0.120284766
86	0xbe12ae30	-0.1432426
87	0x3e9702f4	0.2949444
88	0xbd6c352a	-0.05766789
89	0x3be62ad1	0.007024147
90	0x3dbc2d1c	0.091882914
91	0xbd311351	-0.043231312
92	0x3d8eb0c2	0.069673076
93	0xbe6f8958	-0.23392236
94	0xbe224772	-0.15847567
95	0x3dd956fb	0.10612293
96	0x3e65aa11	0.22428156
97	0xbde0d7a5	-0.10978631
98	0xbe05edda	-0.13079014
99	0xbc58350b	-0.01319624
100	0x3de27597	0.11057585
101	0xbcebca3a	-0.028782953
102	0x3e825d6e	0.25461906
103	0x3cc3e4bb	0.023912778
104	0xbd276308	-0.040865928
105	0x3d299c30	0.041408718
106	0xbd796cd9	-0.06089482
107	0xbd8e0ee7	-0.06936436
108	0x3b1514c9	0.0022747985
109	0x3cf52a1c	0.029927306
110	0x3db43d33	0.08800735
111	0x3cb3b26d	0.021935666
112	0xbd0e7f52	-0.03478939
113	0xbd42ccdf	-0.04755866
114	0x3d395c4e	0.045254044
115	0xba9d7446	-0.0012012802
116	0xbccdef2d	-0.025138462
117	0x3d987c62	0.07445599
118	0xbdfbec74	-0.12300959
119	0x3d998c1e	0.07497428
120	0xbe591947	-0.21201049
121	0xbc8f636c	-0.017503463
122	0xbda003a3	-0.07813194
123	0x3bfa7458	0.007643264
124	0xbc880776	-0.01660512
125	0x3d213848	0.039360315
126	0xbc207f5e	-0.009795992
127	0x3cdd2822	0.026996676
128	0x3caf7449	0.021417754
129	0x3d0a0df9	0.03370473
130	0x3e57cb97	0.21073757
131	0xbcb87a82	-0.022519354
132	0x3d02d148	0.031937867
133	0xbc93c3f1	-0.018037768
134	0x3d379c9e	0.044827096
135	0xbcefc698	-0.029269502
136	0x3e023d53	0.12718706
137	0xbd17e800	-0.037086487
138	0x3e0c85c5	0.13722904
139	0x3ccc92e8	0.024972394
140	0x3edbb098	0.42908168
141	0xbe99096c	-0.2989
142	0x3c3a6091	0.011375562
143	0xbd2a1a15	-0.04152878
144	0x3e121d75	0.1426905
145	0xbb7ff3a8	-0.0039055143
146	0xbe36baea	-0.1784474
147	0xbe0f7599	-0.14009704
148	0x3d9bacc7	0.07601314
149	0x3d42a320	0.04751885
150	0x3cac7f4e	0.021056797
151	0xbd79d7b2	-0.06099672
152	0x3e5a0ba3	0.21293502
153	0xbdd9a5c4	-0.106273204
154	0xbe8f8d0e	-0.28037304
155	0xbc853aea	-0.016263444
156	0x3c693f16	0.014236232
157	0x3dd09e12	0.101863995
158	0xbcd21065	-0.025642583
159	0xbc14df79	-0.009086483
160	0x3c8b4ab9	0.017003404
161	0xbc766552	-0.015038805
162	0x3da852ac	0.082188934
163	0x3d281099	0.041031454
164	0x3e1822ba	0.14856997
165	0x3dee7826	0.1164401
166	0x3c2ef735	0.010679056
167	0xbe17a8f4	-0.14810544
168	0xbda6eb51	-0.08150352
169	0x3cb09b44	0.021558411
170	0x3c52dff9	0.012870782
171	0xbcda4826	-0.026645731
172	0xbddd07f8	-0.107925355
173	0xbe4d3aa7	-0.20041905
174	0x3dad9260	0.084751844
175	0x3e4b3632	0.19844893
176	0x3e4fd71c	0.20296901
177	0x3e646f19	0.22308005
178	0xbda8e265	-0.08246306
179	0xbe67cb09	-0.22636046
180	0x3e15a583	0.14613919
181	0xbdd3e54b	-0.103464685
182	0x3d6aa0ed	0.057282377
183	0xbdf2ce39	-0.1185574
184	0x3dd34504	0.10315898
185	0xbc1e7f13	-0.009673852
186	0xbcba9f11	-0.022780927
187	0x3e19c637	0.15017019
188	0xbd8fbeec	-0.07018837
189	0x3da5e55f	0.0810039
190	0x3d5c9d6e	0.053861074
191	0x3e29bcda	0.16575947
192	0x3ddf43b3	0.109015845
193	0x3d18b854	0.037285164
194	0xbe485333	-0.19562988
195	0xbe016cbd	-0.12639137
196	0xbdff9b61	-0.12480808
197	0x3d00ab78	0.031413525
198	0x3e00ad65	0.12566145
199	0x3e5543c6	0.20826635
200	0x3d74fe34	0.05981274
201	0x3db9a51b	0.090646945
202	0xbbc28040	-0.0059356987
203	0x3d809450	0.06278288
204	0x3d7fd20a	0.06245617
205	0xb7af4770	-2.0894891e-05
206	0xbdaa0dfb	-0.08303448
207	0xbdc9e529	-0.09858162
208	0xbe310ee6	-0.1729084
209	0x3cdba6d9	0.026812958
210	0x3d8a944b	0.06766566
211	0x3d2ed627	0.0426847
212	0xbdab1953	-0.083544396
213	0x3d09cb3a	0.033641078
214	0xbe88e4cd	-0.2673706
215	0x3bc529ce	0.0060169464
216	0x3b458418	0.0030138548
217	0xbd87125e	-0.065953
218	0x3e253866	0.16134796
219	0xbd95eb8f	-0.0732032
220	0x3d71c57c	0.059026226
221	0xbc8b52bc	-0.017007224
222	0xbd8ade8e	-0.0678073
223	0x3d0f5ba3	0.0349995
224	0x3d953152	0.07284798
225	0xbccf570a	-0.025310058
226	0x3e11af4d	0.14227028
227	0xbd0005cc	-0.03125553
228	0xbe32564b	-0.1741573
229	0x3c15d6eb	0.009145479
230	0x3cc54c0f	0.02408412
231	0x3cf10b2d	0.029424274
232	0xbc78003e	-0.0151367765
233	0x3d36fc74	0.04467435
234	0xbd8bd0f1	-0.06826962
235	0x3d358988	0.044320613
236	0x3d4d63fd	0.050144184
237	0x3c70b4de	0.01469156
238	0xbe7562a3	-0.23963408
239	0x3d769907	0.060204532
240	0x3ad4e794	0.0016243332
241	0x3e891b1c	0.26778495
242	0xbd56aae9	-0.052409086
243	0x3c1096fa	0.008825058
244	0xbc9e7d61	-0.019346895
245	0xbe7faa4f	-0.24967311
246	0x3db76276	0.08954327
247	0xbd9e2b78	-0.07723135
248	0xbdd044c7	-0.10169368
249	0x3d755784	0.059897915
250	0x3d4990b7	0.049210276
251	0x3d727801	0.059196476
252	0x3ea174ef	0.31534526
253	0xbd351e8d	-0.04421859
254	0xbd6edfbe	-0.058318846
255	0xbe170d38	-0.14751136

net.0.bias f4 [256]
0	0xbd0063a0	-0.03134501
1	0xbacadcdc	-0.0015477198
2	0x3dc6c45e	0.09705423
3	0x3dae5a82	0.08513357
4	0xbd18fff1	-0.03735346
5	0x3d6d82d9	0.057986114
6	0xbda5d067	-0.0809639
7	0x3c0cfdf5	0.00860547
8	0x3bc06b69	0.0058721793
9	0x3dba179d	0.09086535
10	0x3dbd2f16	0.092374966
11	0x3d89bca5	0.06725434
12	0x3ae9a83d	0.0017826628
13	0xbd79ae5d	-0.0609573
14	0xbd77e616	-0.06052216
15	0xbd85e5b2	-0.065379515
16	0x3da0f539	0.078592725
17	0x3db600e8	0.088868916
18	0x3dbdf8d6	0.09275977
19	0xbcf49028	-0.029853895
20	0x3d7a3670	0.061087072
21	0xbd9e9193	-0.0774261
22	0xbc82f864	-0.015987583
23	0x3da801e6	0.08203487
24	0x3d218094	0.039429262
25	0x3bb71ec8	0.005588386
26	0x3d720f2b	0.059096497
27	0xbdb0cf4e	-0.0863329
28	0xbd0140f8	-0.0315561
29	0x3d2dd00b	0.042434733
30	0xbd02d410	-0.03194052
31	0x3d8c466b	0.06849369
32	0xbd34b693	-0.04411943
33	0xbd62630f	-0.05527025
34	0xbd03081f	-0.031990167
35	0xbd74b9de	-0.05974757
36	0xbd58311b	-0.052781206
37	0x3c72d301	0.014820815
38	0xbd18b04c	-0.037277505
39	0x3d8bcf5b	0.06826659
40	0xbcfeec79	-0.031118618
41	0x3da4ab33	0.08040466
42	0xbd1ba70c	-0.038001105
43	0x3c08ebd5	0.008357008
44	0xbd9a04a0	-0.075204134
45	0x3d86cbc0	0.06581831
46	0x3d8d877f	0.069106095
47	0xbdb6467f	-0.08900165
48	0xbcc026b5	-0.023455957
49	0xbd481d5a	-0.048856117
50	0x3d5c91fb	0.053850155
51	0x3b503a85	0.0031773162
52	0x3d2252e0	0.039629817
53	0xbc181314	-0.009281892
54	0x3a9e6fcd	0.0012087763
55	0x3d6cc563	0.05780543
56	0x3d12e7e7	0.03586569
57	0x3dba354a	0.09092195
58	0x3d1bbe7f	0.038023468
59	0xbda693d9	-0.081336685
60	0x3d27f758	0.04100737
61	0xbdb8ca89	-0.090230055
62	0xbcfcc9fe	-0.030858036
63	0x3da510cb	0.08059844
64	0x3d74b2cf	0.059740838
65	0x3d4837af	0.04888123
66	0xbdbb0533	-0.09131851
67	0x3da4ef4e	0.08053456
68	0xbcac6938	-0.021046266
69	0x3d402ea5	0.046919484
70	0x3bec97b7	0.0072202343
71	0x3befdf5d	0.007320328
72	0x3d5aa95a	0.053384162
73	0x3d46aa72	0.048502393
74	0xbcba1670	-0.022715777
75	0xbb31746b	-0.0027077447
76	0x3d4061e4	0.046968356
77	0xbcbff0a5	-0.023430178
78	0xbd6eb803	-0.058280956
79	0xbdabc0f6	-0.08386414
80	0xbbd32a3b	-0.0064442432
81	0xbd4ea141	-0.050446752
82	0xbcffe401	-0.03123665
83	0x3c6811a0	0.014164358
84	0x3ca2bd0b	0.019865533
85	0x3ce3b71a	0.02779727
86	0x3da963ef	0.08271014
87	0x3d8c4f9d	0.068511225
88	0x3d131e1f	0.035917398
89	0x3db4863d	0.088146664
90	0xbd61ebe2	-0.055156596
91	0xbd75c284	-0.059999958
92	0x3dc37279	0.09543318
93	0x3c32be31	0.010909603
94	0x3c3fa4b2	0.011696981
95	0xbcc71d06	-0.024305832
96	0x3d1c0b53	0.038096737
97	0xbd9129d4	-0.07088056
98	0x3d745466	0.0596508
99	0x3d887b50	0.06664145
100	0xbb4f8120	-0.0031662658
101	0xbcf86f3e	-0.030326482
102	0x3db87a27	0.09007674
103	0xbd15ac88	-0.03654149
104	0xbdac6ed6	-0.08419578
105	0xbd7e7e84	-0.062132373
106	0xbd8c5f50	-0.06854117
107	0xbdb825f8	-0.08991617
108	0xbbd91bf0	-0.006625645
109	0xbd6b065f	-0.057379123
110	0xbc888e1a	-0.016669322
111	0x3d2ea1f5	0.042634923
112	0x3da04395	0.0782539
113	0x3db24b2a	0.08705743
114	0x3b8fa2ae	0.0043834066
115	0xbd60a062	-0.054840453
116	0xbc5b6a26	-0.013392007
117	0x3b6ba70b	0.003595772
118	0x3da3425f	0.07971644
119	0xbcb19bb3	-0.021680688
120	0x3ce3f084	0.027824648
121	0x3d11beb3	0.035582256
122	0x3cc6657d	0.024218315
123	0x3d121e43	0.03567339
124	0xbdc3051d	-0.0952246
125	0x3ca31098	0.019905373
126	0xbc85702b	-0.016288837
127	0x3db19c56	0.08672397
128	0xbc3b483b	-0.011430795
129	0x3cab16b9	0.020884858
130	0x3d83e6fd	0.06440542
131	0x3d914dbb	0.07094904
132	0xbd23c93c	-0.039986834
133	0x3d70c425	0.058780808
134	0x3d749407	0.059711482
135	0xbd8c6152	-0.068545
136	0x3da0b0cf	0.078462236
137	0x3d8f6eb5	0.070035376
138	0x3d9c9191	0.07644952
139	0x3d4dd870	0.05025524
140	0xbd899b27	-0.06719046
141	0x3d94891d	0.07252715
142	0xbd013914	-0.031548575
143	0xbd5b591d	-0.053551782
144	0x3d7a5eb1	0.06112546
145	0xbac04cd8	-0.0014671339
146	0x3d9ef654	0.07761827
147	0x3db9b67d	0.0906801
148	0xbc9b1336	-0.018930059
149	0x3d8f1c45	0.06987814
150	0x3a91df62	0.0011129195
151	0xbcff4c89	-0.031164424
152	0x3d776c37	0.060405936
153	0x3d973850	0.07383788
154	0xbd45087f	-0.048103806
155	0xbd707b64	-0.058711424
156	0xbcded701	-0.027202131
157	0xbd50da91	-0.05098969
158	0xbcd5c049	-0.026092665
159	0xbaaa68fb	-0.0013001257
160	0x3d39fcae	0.04540699
161	0x3daf0604	0.08546069
162	0xbdaac6f6	-0.0833873
163	0x3db70316	0.089361355
164	0xbd612707	-0.05496886
165	0xbc02b3bf	-0.007977425
166	0xbdae1934	-0.08500901
167	0x3b86968b	0.0041073016
168	0xbd9f400c	-0.07775888
169	0xbda81a98	-0.08208197
170	0x3da2723b	0.07931944
171	0x3c9983e5	0.01873965
172	0x3d9e8676	0.0774049
173	0x3d11000d	0.03540044
174	0x3dc26e6d	0.09493718
175	0xbd538ec2	-0.051649816
176	0x3da6b669	0.08140261
177	0xbd3f38f1	-0.046685163
178	0x3d90b230	0.070652366
179	0xbdb79562	-0.089640394
180	0xbd4293c1	-0.04750419
181	0x3db6ce0e	0.089260206
182	0xbcd2807e	-0.025696035
183	0xbd9420d5	-0.07232825
184	0x3dc224cd	0.094796754
185	0x3c7bbb82	0.01536453
186	0xbd838cbb	-0.064233266
187	0xbb9d4886	-0.0047999052
188	0xbd94f8dc	-0.07274029
189	0xbd3e4c85	-0.046459693
190	0xbdc42df7	-0.095790796
191	0x3d9599eb	0.07304748
192	0x3d04909a	0.032364465
193	0xbd96359e	-0.073344454
194	0x3cc331f3	0.023827529
195	0xbcac232f	-0.02101287
196	0x3d1c2d05	0.03812887
197	0x3d9f7cab	0.077874504
198	0x3d4e8866	0.05042305
199	0xbc67f334	-0.014157105
200	0x3d15493c	0.036446795
201	0xbdbe496e	-0.09291349
202	0xbd72c5fd	-0.059270848
203	0x3cf565fa	0.029955853
204	0x3d846561	0.06464649
205	0x3d52dc7d	0.051479805
206	0x3d8be5a6	0.06830911
207	0x3c6e9cb7	0.014563731
208	0xbd919d3c	-0.07110068
209	0xbd83f956	-0.064440414
210	0xbd30aec2	-0.043135412
211	0x3d8fad58	0.070154846
212	0xbcac4f3e	-0.02103388
213	0x3d66b87a	0.056328274
214	0x3c966b2a	0.018361647
215	0x3d766810	0.060157835
216	0x3daff986	0.08592515
217	0xbdc3ba6b	-0.09557041
218	0x3c25d0a6	0.010120546
219	0xbd1c844c	-0.038212106
220	0xbd8b0087	-0.0678721
221	0xbbe3d1e6	-0.006952512
222	0x3db6444f	0.088997476
223	0x3cc2e7a1	0.02379209
224	0xbd7c32dd	-0.061571945
225	0xbd5e3fad	-0.054259945
226	0xba0efeba	-0.00054548273
227	0xbd66040a	-0.056156196
228	0x3cb1317c	0.021630041
229	0xbad2f805	-0.0016095644
230	0x3d0ac124	0.0338756
231	0xbd92971f	-0.0715773
232	0x3db212ff	0.086950295
233	0xbd35b611	-0.044363085
234	0x3d60ef4c	0.05491571
235	0xbd443073	-0.047897767
236	0x3dc1ba66	0.09459381
237	0x3da51932	0.08061446
238	0xbdb46682	-0.08808614
239	0xbdb99e17	-0.09063356
240	0x3dbbd043	0.09170582
241	0x3d796fa9	0.060897503
242	0x3bcc770b	0.006239777
243	0x3d1d3ce4	0.038388148
244	0xbcfdf0bb	-0.030998578
245	0xbd1c3a20	-0.03814137
246	0x3dbe4340	0.09290171
247	0xbdb7637c	-0.08954522
248	0xbd9fe8a5	-0.07808045
249	0xbcc309f4	-0.023808457
250	0x3d7b72e2	0.061388858
251	0xbc81d06d	-0.015846455
252	0xbce6b008	-0.02816011
253	0x3db7c82b	0.08973726
254	0x3d83c0f5	0.06433288
255	0x3d0e6123	0.034760606

net.1.weight f4 [256]
0	0x3f83fb6a	1.03111
1	0x3f7a9f5d	0.9789942
2	0x3f763823	0.9617941
3	0x3f6893f4	0.9085076
4	0x3f6a5614	0.91537595
5	0x3f89420b	1.072328
6	0x3f7040bf	0.93848795
7	0x3f6d28e8	0.92640543
8	0x3f70496c	0.9386203
9	0x3f8ac781	1.0842134
10	0x3f7a3786	0.9774097
11	0x3f6e7c65	0.9315856
12	0x3f689803	0.9085695
13	0x3f74c440	0.95611954
14	0x3f755035	0.9582551
15	0x3f7567f0	0.9586172
16	0x3f87c9e5	1.0608488
17	0x3f6a61d1	0.91555506
18	0x3f66b08f	0.9011316
19	0x3f70cfe1	0.940672
20	0x3f756392	0.9585506
21	0x3f6395fd	0.8890074
22	0x3f8538cd	1.0407959
23	0x3f597b30	0.84953594
24	0x3f639390	0.8889704
25	0x3f833003	1.0249027
26	0x3f8a7fb3	1.0820221
27	0x3f5cd2d0	0.86259174
28	0x3f7442ee	0.95414627
29	0x3f8120d2	1.0088141
30	0x3f69ced9	0.9133125
31	0x3f76c483	0.96393603
32	0x3f4b5b91	0.79436594
33	0x3f790768	0.97276926
34	0x3f65eaa0	0.89811134
35	0x3f84cee0	1.0375633
36	0x3f7c16e1	0.9847241
37	0x3f62e984	0.88637567
38	0x3f6ecb24	0.9327872
39	0x3f74dd03	0.9564974
40	0x3f5e3266	0.8679565
41	0x3f85a86f	1.0442027
42	0x3f4d958f	0.80306333
43	0x3f74f176	0.9568094
44	0x3f7021b5	0.9380143
45	0x3f89bf28	1.0761461
46	0x3f6987c7	0.91222805
47	0x3f8a63c7	1.08117
48	0x3f8249bc	1.0178752
49	0x3f616542	0.8804513
50	0x3f85037c	1.0391688
51	0x3f6b469b	0.9190461
52	0x3f7360fb	0.95069855
53	0x3f8021ea	1.001035
54	0x3f76ee26	0.96457136
55	0x3f599d1e	0.85005367
56	0x3f8682c5	1.0508658
57	0x3f7816fc	0.9691007
58	0x3f647acb	0.8924987
59	0x3f85adb4	1.0443635
60	0x3f718311	0.94340616
61	0x3f673f11	0.90330607
62	0x3f77790d	0.96669084
63	0x3f630f57	0.8869528
64	0x3f81abf6	1.0130603
65	0x3f838e4d	1.0277802
66	0x3f739681	0.95151526
67	0x3f807239	1.0034858
68	0x3f76aac7	0.96354336
69	0x3f7e6fdb	0.9938943
70	0x3f6e0ffd	0.92993146
71	0x3f688a41	0.9083596
72	0x3f6de185	0.9292224
73	0x3f7c8069	0.9863344
74	0x3f8b29f1	1.0872175
75	0x3f7a4746	0.97765005
76	0x3f804e22	1.0023844
77	0x3f70c23f	0.94046396
78	0x3f61e962	0.8824674
79	0x3f716434	0.9429352
80	0x3f6ca328	0.92436457
81	0x3f8532a1	1.0406076
82	0x3f7ce27d	0.98783094
83	0x3f8827b5	1.0637118
84	0x3f77093f	0.96498483
85	0x3f6aef5b	0.9177148
86	0x3f73673b	0.9507939
87	0x3f83f4fd	1.030914
88	0x3f68da88	0.9095845
89	0x3f86641b	1.04993
90	0x3f762687	0.9615254
91	0x3f5c55f5	0.8606866
92	0x3f74d3c3	0.9563562
93	0x3f74be3e	0.95602787
94	0x3f64c59d	0.89364034
95	0x3f62050a	0.8828894
96	0x3f7d4137	0.98927635
97	0x3f8020d6	1.0010021
98	0x3f739671	0.9515143
99	0x3f5a7b83	0.85344714
100	0x3f6a8535	0.9160951
101	0x3f6be52b	0.9214656
102	0x3f7eca52	0.99527466
103	0x3f801b90	1.0008411
104	0x3f73f4bd	0.95295316
105	0x3f5dc256	0.8662466
106	0x3f85ac48	1.0443201
107	0x3f6a2e15	0.91476566
108	0x3f775f8d	0.96630174
109	0x3f7c7845	0.98621017
110	0x3f76ce96	0.96408975
111	0x3f57ce1c	0.8429887
112	0x3f661417	0.89874405
113	0x3f648617	0.89267105
114	0x3f79f5eb	0.97640866
115	0x3f7a5973	0.9779274
116	0x3f798ecc	0.97483516
117	0x3f54be8f	0.8310327
118	0x3f73e0d8	0.9526496
119	0x3f80a512	1.0050375
120	0x3f86c210	1.0527973
121	0x3f7b249c	0.98102736
122	0x3f832b23	1.0247539
123	0x3f84334b	1.0328153
124	0x3f80f098	1.0073423
125	0x3f938e49	1.1527797
126	0x3f7fb326	0.99882734
127	0x3f807494	1.0035577
128	0x3f796a0a	0.9742743
129	0x3f6e747b	0.93146485
130	0x3f891809	1.071046
131	0x3f830161	1.0234796
132	0x3f5b94eb	0.85774106
133	0x3f65adea	0.89718497
134	0x3f89c32c	1.0762687
135	0x3f80c4b7	1.0060033
136	0x3f6551bb	0.89577836
137	0x3f7d405f	0.9892635
138	0x3f707f14	0.93943906
139	0x3f670f06	0.902573
140	0x3f6f8064	0.93555284
141	0x3f7779f3	0.96670455
142	0x3f730c90	0.94941044
143	0x3f5ee485	0.87067443
144	0x3f6ed8a2	0.93299305
145	0x3f6fdec1	0.9369927
146	0x3f5f6e5e	0.8727778
147	0x3f684e84	0.90744805
148	0x3f685dd5	0.90768176
149	0x3f6941bc	0.9111593
150	0x3f80c4b1	1.0060025
151	0x3f7914c6	0.9729732
152	0x3f6b1995	0.9183591
153	0x3f82c015	1.0214869
154	0x3f81994f	1.0124911
155	0x3f83f9de	1.0310628
156	0x3f7c9fc0	0.9868126
157	0x3f799856	0.9749807
158	0x3f7d928c	0.9905174
159	0x3f667e3c	0.9003637
160	0x3f76bab4	0.96378636
161	0x3f550ee0	0.8322582
162	0x3f621ab1	0.8832198
163	0x3f7235fb	0.9461362
164	0x3f905157	1.1274823
165	0x3f7a4570	0.97762203
166	0x3f79302e	0.9733914
167	0x3f867e61	1.0507318
168	0x3f7058e4	0.93885636
169	0x3f620740	0.8829231
170	0x3f6abff6	0.9169916
171	0x3f749fae	0.9555615
172	0x3f78d021	0.9719258
173	0x3f5f12e1	0.8713818
174	0x3f82596a	1.0183537
175	0x3f8375e9	1.0270358
176	0x3f77764c	0.9666488
177	0x3f7f7062	0.9978086
178	0x3f677a55	0.9042104
179	0x3f812caa	1.0091755
180	0x3f80fea5	1.0077711
181	0x3f6da871	0.92835146
182	0x3f61dd4e	0.8822831
183	0x3f5799fc	0.84219337
184	0x3f5ff180	0.87477875
185	0x3f849c05	1.0360113
186	0x3f69776e	0.9119786
187	0x3f614a40	0.8800392
188	0x3f7e7d42	0.9940988
189	0x3f81523e	1.0103223
190	0x3f76dce4	0.964308
191	0x3f69335a	0.9109398
192	0x3f6a53e4	0.91534257
193	0x3f7b330b	0.9812476
194	0x3f709d36	0.93989885
195	0x3f7f9c3e	0.9984778
196	0x3f824d61	1.0179864
197	0x3f6e46e3	0.93076915
198	0x3f7dbc3e	0.9911536
199	0x3f5dd95b	0.86659783
200	0x3f7c7053	0.98608893
201	0x3f76470f	0.96202177
202	0x3f5c3e33	0.8603241
203	0x3f79f481	0.9763871
204	0x3f81a9e6	1.0129974
205	0x3f6da1c1	0.9282494
206	0x3f7db0ef	0.99098104
207	0x3f79e136	0.9760927
208	0x3f8e7cb3	1.1131805
209	0x3f6785d7	0.904386
210	0x3f728feb	0.9475085
211	0x3f766d40	0.9626045
212	0x3f81cbcd	1.014032
213	0x3f6398cf	0.8890504
214	0x3f55aceb	0.83466977
215	0x3f711160	0.9416714
216	0x3f77759f	0.9666385
217	0x3f6d332c	0.9265621
218	0x3f6b58cc	0.9193237
219	0x3f6d36fb	0.9266202
220	0x3f7194ab	0.94367474
221	0x3f8614c6	1.047509
222	0x3f7c4320	0.98539925
223	0x3f89adbd	1.0756146
224	0x3f75e841	0.96057516
225	0x3f70e76f	0.9410314
226	0x3f74c3b0	0.95611095
227	0x3f6d7b56	0.9276632
228	0x3f709d1a	0.9398972
229	0x3f9407f8	1.1564932
230	0x3f703451	0.9382983
231	0x3f752a1f	0.95767397
232	0x3f86900a	1.0512707
233	0x3f85ef69	1.0463687
234	0x3f77d157	0.968038
235	0x3f87a522	1.059727
236	0x3f6f524f	0.9348497
237	0x3f7e03f9	0.9922481
238	0x3f7340b0	0.9502058
239	0x3f715926	0.94276655
240	0x3f810444	1.0079427
241	0x3f8b92f9	1.0904227
242	0x3f5f5239	0.87234837
243	0x3f72f684	0.94907403
244	0x3f71cec9	0.94456154
245	0x3f69a946	0.91273916
246	0x3f5964db	0.8491952
247	0x3f7c485a	0.985479
248	0x3f7a2322	0.9770986
249	0x3f7848a8	0.96985865
250	0x3f7b498a	0.98159087
251	0x3f7d9d27	0.9906792
252	0x3f72d8a8	0.9486184
253	0x3f874b46	1.0569847
254	0x3f830e2e	1.0238702
255	0x3f727d8b	0.94722813

net.1.bias f4 [256]
0	0x3e1f343d	0.15547271
1	0x3dbfe8d3	0.093705796
2	0xbceb6715	-0.028735677
3	0x3d61051a	0.054936506
4	0xbce2a308	-0.02766563
5	0x3d894203	0.06702044
6	0x3d0638f8	0.032769173
7	0xbd88cdf4	-0.066799074
8	0xbe020379	-0.12696637
9	0x3d68a5e8	0.056798846
10	0x3c92f914	0.017941035
11	0x3c310bc5	0.010806029
12	0x3cdc427e	0.026887175
13	0xbd5a9bcb	-0.053371232
14	0xbd55f435	-0.052234847
15	0x3dc86600	0.0978508
16	0xbda4e397	-0.08051222
17	0x3c7aa0a0	0.015297085
18	0x3d63f494	0.05565317
19	0xbd6624fa	-0.056187607
20	0xbd8dcdb8	-0.06924003
21	0x3c8eef88	0.017448202
22	0x3d35b548	0.044362336
23	0xbd473e3b	-0.048643332
24	0xbd411e59	-0.047148082
25	0x3dae1131	0.08499373
26	0x3e05a373	0.13050632
27	0x3d682fe8	0.056686312
28	0x3dcab4d7	0.09897774
29	0x3e0181fc	0.12647241
30	0xbd402c39	-0.046917174
31	0x3d1ea209	0.038728748
32	0xbd0ec0b5	-0.03485175
33	0x3ddebbc9	0.10875661
34	0x3d9ed90d	0.07756243
35	0xbcd70bfe	-0.026250836
36	0x3d98afac	0.07455382
37	0x3d8c031b	0.0683653
38	0x3d943109	0.07235915
39	0x3d9b5b49	0.07585771
40	0xbd9286ea	-0.07154639
41	0x3d8c42ed	0.068487026
42	0xbdad908f	-0.08474838
43	0x3df23184	0.118258506
44	0xbd881543	-0.0664468
45	0x3ca5b8dd	0.020229751
46	0x3d9a982b	0.07548555
47	0xbd406a25	-0.046976227
48	0x3d6fd70d	0.058554698
49	0xbd0dc507	-0.034611728
50	0xbd8f87ba	-0.0700831
51	0x3d89d1ae	0.06729446
52	0xbd93c1d4	-0.07214704
53	0x3d93fd1c	0.07226011
54	0xbbdab3fc	-0.006674288
55	0x3d38afc8	0.045089513
56	0x3da62d14	0.08114067
57	0x3d83bfba	0.06433053
58	0xbd86aff5	-0.0657653
59	0x3cb3b808	0.021938339
60	0x3e13bf02	0.14428332
61	0xbda38fba	-0.07986398
62	0xbd08343f	-0.03325295
63	0x3db85d31	0.0900215
64	0x3d9bee2b	0.07613786
65	0x3d95bdbb	0.07311579
66	0x3d455b6d	0.048182894
67	0x3d86bd73	0.06579103
68	0x3cdcc95f	0.02695149
69	0x3da4546f	0.08023917
70	0xbc11754d	-0.008878064
71	0x3d7d4515	0.06183346
72	0x3d10516e	0.035233907
73	0xbd28eec1	-0.04124332
74	0x3d18e376	0.0373263
75	0xbc9c5bff	-0.019086836
76	0xbd988155	-0.07446543
77	0xbd833abe	-0.064076886
78	0xbd863217	-0.06552523
79	0x3d92c0f5	0.0716571
80	0x3d7f3844	0.06230952
81	0xbe413edf	-0.1887164
82	0xbd821e7d	-0.063534714
83	0x3db3b830	0.08775365
84	0x3d683456	0.056690536
85	0x3d9adf77	0.07562154
86	0xbd307458	-0.043079704
87	0x3b8e49e7	0.004342306
88	0x3d08cd5e	0.03339898
89	0x3cb44f31	0.022010418
90	0x3d7938e9	0.06084529
91	0x3c198aa4	0.009371433
92	0xbd43eace	-0.04783135
93	0xbd3f4b14	-0.04670246
94	0xbaf8f01b	-0.0018992455
95	0xbc59cb41	-0.013293088
96	0xbc9f367d	-0.019435162
97	0x3d92dc98	0.07170981
98	0x3df0bce1	0.11754776
99	0xbc8a370a	-0.016871948
100	0xbdc6fec2	-0.0971656
101	0x3d3bb43a	0.045826174
102	0x3dbac68c	0.09119901
103	0x3d980b98	0.07424086
104	0x3cb8dd97	0.0225666
105	0x3d27b928	0.040948063
106	0x3de72313	0.11285987
107	0xbd9c433e	-0.07630013
108	0x3d242e5c	0.040083274
109	0xbd6ce7bf	-0.057838198
110	0x3da07c83	0.07836249
111	0x3cbd4582	0.023104433
112	0xbcf3f72f	-0.029780952
113	0x3d599384	0.053119197
114	0x3c92a580	0.017901182
115	0xbd824e07	-0.06362539
116	0x3d912070	0.07086265
117	0xbc0cc6ef	-0.008592351
118	0x3db1a492	0.086739674
119	0xbd9bd665	-0.07609252
120	0xbd2f0c9e	-0.042736642
121	0x38b635a0	8.688425e-05
122	0xbd046c66	-0.03232994
123	0xbdadbea0	-0.084836245
124	0x3d961077	0.07327359
125	0x3d97d845	0.07414297
126	0x3d97c918	0.074114025
127	0x3db56f8d	0.08859167
128	0x3dadfc55	0.08495394
129	0x3d8bba7d	0.06822679
130	0xbd7cd145	-0.061723012
131	0x3d7ec613	0.062200617
132	0xbc57e262	-0.013176532
133	0xbcef50bf	-0.029213307
134	0xbd22d6c7	-0.03975561
135	0x3d827e38	0.063717306
136	0x3d6e29f8	0.058145493
137	0x3ba0f9c6	0.004912588
138	0x3d984e00	0.07436752
139	0x3ba746f0	0.005104892
140	0x3dbb4f6e	0.091460094
141	0xbd12670d	-0.035742808
142	0x3cbc64b1	0.022997232
143	0x3dabbfea	0.08386214
144	0x3dbd43a0	0.09241414
145	0x3c7f6b04	0.015589479
146	0xbd0efbf8	-0.034908265
147	0xbc33cfb6	-0.010974815
148	0xbda241fe	-0.07922743
149	0x3ba2b7dc	0.0049657654
150	0xbd3f984a	-0.046776094
151	0x3d88f4a7	0.06687289
152	0xbd4dd300	-0.050250053
153	0xba3d3797	-0.00072180614
154	0x3db60460	0.08887553
155	0x3dd895d7	0.10575455
156	0xbda7f533	-0.08201065
157	0xbc4bdfe5	-0.012443517
158	0x3c8a8a7c	0.016911738
159	0xbd8e6eb1	-0.069547065
160	0xbccdb992	-0.0251129
161	0xbd824082	-0.0635996
162	0xbd0ac251	-0.03387672
163	0xbda1d0d9	-0.07901163
164	0x3de92dc1	0.1138568
165	0x3da06989	0.07832629
166	0x3b2e5913	0.0026603385
167	0x3dc0a79e	0.094069704
168	0x3da5fc8e	0.081048116
169	0xbd0bfdea	-0.0341777
170	0xbd38ed65	-0.045148272
171	0x3da3af7c	0.07992455
172	0xbd3c04c0	-0.045902967
173	0xbd5792f7	-0.05263039
174	0x3d655ed2	0.05599863
175	0x3dba09d8	0.09083909
176	0x3d603975	0.054742295
177	0x3d948d7a	0.07253547
178	0x3d59055c	0.052983627
179	0x3d0ddbcd	0.034633446
180	0x3d942588	0.07233721
181	0x3d926357	0.07147854
182	0x3da026bb	0.07819887
183	0x3d1a5f20	0.037688375
184	0xbdae06fb	-0.08497425
185	0x3ddfb348	0.10922867
186	0xbd121f70	-0.035674512
187	0xbd483bd3	-0.048885178
188	0x3df19a0b	0.117969595
189	0xbd7c9540	-0.061665773
190	0xbdaab69a	-0.0833561
191	0x3c1c57de	0.009542434
192	0xbd858018	-0.065185726
193	0xbd9d1e85	-0.07671837
194	0x3d9dc57a	0.07703681
195	0x3dbf8c5f	0.093529455
196	0x3c744906	0.014909988
197	0x3dac9df2	0.08428563
198	0x3d56fafd	0.052485455
199	0x3b864fb7	0.004098858
200	0xbdb77eef	-0.089597575
201	0xbc9fc2f5	-0.019502142
202	0x3bd7bd09	0.006583814
203	0xbd27ec8d	-0.040997077
204	0x3bf723ec	0.007542124
205	0x3d93494c	0.07191715
206	0xbc7c7ab9	-0.015410119
207	0x3d8bef0a	0.068327025
208	0x3d007341	0.031359915
209	0xbd8a0208	-0.06738669
210	0xbde6bbdb	-0.11266299
211	0xbcd0a6e1	-0.025470199
212	0xbdef5e8f	-0.116879575
213	0x3d713045	0.058883924
214	0xbd8b56c6	-0.0680366
215	0xbd3a3c5d	-0.045467723
216	0x3d9db353	0.07700219
217	0x3d87af23	0.066252016
218	0x3c9cb526	0.019129347
219	0xbd58eace	-0.052958302
220	0xbdc8fc2b	-0.09813722
221	0x3dcf3f55	0.101195015
222	0xbd96cb19	-0.073629566
223	0x3d6b303d	0.05741905
224	0x3db4fb91	0.08837045
225	0x3de0ccdb	0.10976573
226	0x3cc2b127	0.023766113
227	0x3da57006	0.080780074
228	0x3df278b0	0.118394256
229	0x3d99b58f	0.07505333
230	0xbd4362f5	-0.047701795
231	0x3d66aaa1	0.05631507
232	0x3db629e9	0.088947125
233	0x3db09281	0.086216934
234	0x3d77dd7d	0.060513962
235	0x3d73c444	0.059513345
236	0xbd9b4ebd	-0.075833775
237	0xbd086578	-0.033299893
238	0x3da3c9b5	0.07997457
239	0x3d861967	0.06547814
240	0xbdad23f5	-0.08454124
241	0x3db100f9	0.08642764
242	0xbd84511b	-0.06460782
243	0x3d94558d	0.0724288
244	0xbd00dba8	-0.03145948
245	0xbc7b78e8	-0.0153486505
246	0xbd82e7a1	-0.06391836
247	0xbbceb3f2	-0.0063080722
248	0x3d8e385d	0.06944344
249	0x3d97ce7c	0.07412431
250	0x3dc90243	0.098148845
251	0x3d87f36c	0.06638226
252	0x3c3a12e2	0.011357041
253	0xbb6a2806	-0.0035729422
254	0x3cb63988	0.02224423
255	0xbd25bab8	-0.040461272

net.1.running_mean f4 [256]
0	0xbea4a9fa	-0.32160932
1	0x3e035dd4	0.12828761
2	0x3e321a5a	0.17392865
3	0x3e5247d5	0.20535214
4	0xbd8bae1a	-0.068203166
5	0x3ed7aecf	0.42125556
6	0x3e6b3f79	0.22973432
7	0xbcae4f18	-0.02127795
8	0xbb52603a	-0.0032100813
9	0x3e5bddf2	0.21471384
10	0xbda3c629	-0.079967804
11	0xbe8f984f	-0.2804589
12	0xbf605c11	-0.8764048
13	0x3ddd6ddb	0.10811969
14	0xbe9317a0	-0.28728962
15	0x3e5ccd1e	0.21562621
16	0xbdd281e7	-0.10278683
17	0x3f40d163	0.753195
18	0x3ed7f180	0.42176437
19	0xbe8ddcfe	-0.27707666
20	0x3db73bcb	0.089469515
21	0xbf3e9f0a	-0.74461424
22	0xbee8f3b4	-0.4549843
23	0x3f18f453	0.5974781
24	0x3f004bf7	0.50115913
25	0x3ec1c0a7	0.37842295
26	0x3dd64226	0.104618356
27	0x3f4b2526	0.7935356
28	0xbf3f8114	-0.7480633
29	0xbe46fc29	-0.19432129
30	0xbdb655f4	-0.08903113
31	0xbe458620	-0.19289446
32	0xbfb3e069	-1.405286
33	0xbe7119f4	-0.23545057
34	0x3f7ca885	0.9869464
35	0x3df7f81e	0.121078715
36	0x3e2347ae	0.15945312
37	0x3df078f6	0.117418215
38	0xbde30260	-0.11084437
39	0x3f24d3fe	0.64385974
40	0xbf2c9c25	-0.6742576
41	0x3eb1c1e2	0.34718233
42	0xbdad821c	-0.08472082
43	0x3e9d2f57	0.3070018
44	0x3e4321f4	0.19055921
45	0x3de7f9b5	0.11326925
46	0x3eab37cb	0.33441004
47	0x3ef0cc08	0.47030663
48	0xbea60443	-0.32425126
49	0xbec580d6	-0.38574857
50	0xbdc0b219	-0.094089694
51	0xbeff57fc	-0.49871814
52	0x3ea25581	0.3170586
53	0xbecb7292	-0.39735848
54	0xbec558de	-0.38544363
55	0xbf2017e6	-0.62536466
56	0x3d87b683	0.06626608
57	0x3e58543c	0.21125883
58	0xbf100bc9	-0.5626798
59	0xbef2a12a	-0.47388583
60	0x38e9b668	0.000111442816
61	0x3e960c8a	0.29306442
62	0xbef53919	-0.47895125
63	0xbe7c6424	-0.24647576
64	0x3e174aab	0.14774577
65	0xbd9c9505	-0.07645611
66	0x3e074eaa	0.13213602
67	0xbe3bf524	-0.18355232
68	0xbe8b2d09	-0.27182797
69	0xbeb70c4a	-0.35751563
70	0x3e985d67	0.2975876
71	0x3d3fc5b2	0.046819396
72	0xbdcbcba6	-0.09950952
73	0x3e4fef12	0.20306042
74	0xbf229fcb	-0.63525075
75	0xbe3d69c8	-0.18497384
76	0x3f453c7f	0.77045435
77	0x3ea1ec17	0.31625435
78	0xbf4c4bff	-0.7980346
79	0xbdce392e	-0.100695
80	0x3f0f67fa	0.5601803
81	0xbe07e3ca	-0.13270488
82	0xbf496582	-0.78670514
83	0xbf4a0416	-0.78912485
84	0xbd4f9315	-0.050677378
85	0x3e6f58be	0.23373696
86	0xbf73dd41	-0.9525948
87	0xbf5e1541	-0.8675118
88	0xbe83dd0e	-0.2575459
89	0x3e7a154e	0.2442219
90	0xbdc2722d	-0.094944336
91	0xbef3561d	-0.47526637
92	0x3e41e8f6	0.18936524
93	0x3b45da93	0.0030190095
94	0x3e8040c1	0.25049403
95	0x3df99afa	0.121877626
96	0xbe111dc6	-0.14171514
97	0x3c3359b7	0.010946683
98	0x3ea596fb	0.3234175
99	0x3f0fc336	0.56157243
100	0x3d4d7c51	0.050167385
101	0x3e5ebbcc	0.21751326
102	0x3de68b52	0.11257042
103	0xbe9beede	-0.3045568
104	0x3ed86083	0.42261133
105	0x3d070c8f	0.03297096
106	0xbde42767	-0.11140328
107	0xbf4c81bf	-0.79885477
108	0xbeb773bc	-0.35830486
109	0x3ee51f9e	0.44750684
110	0x3e1d9bbf	0.15391444
111	0x3f14b8b4	0.58094335
112	0xbe9ec679	-0.31010798
113	0x3bb9c4cb	0.0056692115
114	0x3ee0ab76	0.43880814
115	0xbe7b07c0	-0.24514675
116	0x3e6d7918	0.23190725
117	0x3cf06c29	0.02934845
118	0xbdad0a21	-0.084491976
119	0xbeb7217e	-0.3576774
120	0xbee2f085	-0.44324127
121	0xbf0e9bb6	-0.55706346
122	0x3e78176e	0.24227688
123	0xbef77edc	-0.48338974
124	0x3e93ee7b	0.28892884
125	0x3ea381d1	0.3193498
126	0x3ef7e3c2	0.48415953
127	0xbeb45899	-0.35223845
128	0xbeb5b2a0	-0.35487843
129	0x3e391a48	0.18076432
130	0x3dc99e47	0.09844642
131	0x3e1fc0ce	0.15600893
132	0xbe4afdee	-0.19823429
133	0xbd984b02	-0.074361816
134	0x3eb4529c	0.35219276
135	0xbc9c3e0e	-0.019072559
136	0xbf888c7e	-1.0667875
137	0xbf62abf4	-0.8854363
138	0x3f2f631c	0.68510604
139	0x3eefa665	0.46806636
140	0xbf39e38a	-0.7261282
141	0x3da33787	0.079695754
142	0xbf112eb9	-0.5671192
143	0x3e6c2125	0.23059519
144	0xbe9e9680	-0.30974197
145	0x3eed971f	0.4640436
146	0xbe10870f	-0.14114021
147	0xbf358c5b	-0.7091729
148	0xbe9958d0	-0.2995057
149	0x3f32c8c5	0.698376
150	0x3e3ecaa9	0.18631996
151	0xbdcda95a	-0.10042067
152	0xbe7c460d	-0.24636097
153	0x3d426c5b	0.047466617
154	0x3e61b42a	0.22041383
155	0x3e332a7b	0.17496674
156	0xbf1d6ac6	-0.6149105
157	0xbe4fac6e	-0.2028062
158	0xbd8bbbed	-0.068229534
159	0xbf284e65	-0.6574462
160	0xbe4047b4	-0.18777353
161	0x3f028012	0.5097667
162	0x3ee36231	0.44410852
163	0xbc9d2a11	-0.019185098
164	0x3e920c36	0.2852494
165	0xbf8b4ae0	-1.0882225
166	0xbf2de29c	-0.67923903
167	0xbd328fed	-0.04359429
168	0x3f09841b	0.537172
169	0x3e531b7f	0.20615958
170	0xbecb34f3	-0.39688835
171	0x3ebe5a96	0.37178487
172	0xbeef162a	-0.46696597
173	0xbedd2ace	-0.4319672
174	0x3dac8505	0.08423809
175	0xbf2a97dd	-0.66637975
176	0x3ec0a4e1	0.37625793
177	0xbd1da442	-0.038486727
178	0xbd865ac0	-0.06560278
179	0xbecb0db4	-0.39658892
180	0xbd8e7dcd	-0.06957588
181	0xbebea447	-0.3723471
182	0xbe630521	-0.22169925
183	0x3eb0f114	0.34558928
184	0xbe8335ed	-0.2562708
185	0xbbba9c31	-0.005694889
186	0xbf4c5b7a	-0.7982708
187	0xbebc1284	-0.36732876
188	0xbf2a58b9	-0.6654163
189	0x3d35c258	0.044374794
190	0xbef4ecbc	-0.47836864
191	0x3ee880e5	0.4541084
192	0x3bd28daf	0.0064255814
193	0xbe152a37	-0.14566885
194	0x3e8180f2	0.2529369
195	0x3e842539	0.2580965
196	0xbee3b394	-0.44472945
197	0x3ed39dbd	0.41331282
198	0xbe4ca5f0	-0.19985175
199	0xbf098d0a	-0.53730834
200	0xbe2524f5	-0.16127379
201	0xbdde3979	-0.10850806
202	0xbf0ebce6	-0.55756986
203	0xbe23c3c3	-0.15992646
204	0xbee28456	-0.4424159
205	0x3e606a58	0.21915567
206	0xbe62b15a	-0.22137967
207	0xbe33e3be	-0.17567345
208	0xbe062155	-0.13098653
209	0x3dcad7ad	0.09904418
210	0x3e613838	0.21994102
211	0x3e84b5b2	0.25919873
212	0x3eaa95ad	0.3331732
213	0x3e1b6021	0.15173389
214	0x3db197b9	0.08671517
215	0x3d8bf31e	0.0683348
216	0x3cd2a37b	0.02571272
217	0x3da491a5	0.08035592
218	0xbd93c484	-0.07215217
219	0xbf62b710	-0.8856058
220	0x3efd1aa0	0.49434376
221	0xbf21ba50	-0.63174915
222	0x3e8d9cc8	0.27658677
223	0xbf1c8407	-0.6113896
224	0xbf49f712	-0.78892624
225	0xbe5b0435	-0.21388324
226	0xbeeae69d	-0.4587907
227	0xbe0147dc	-0.12625068
228	0x3ec2657b	0.37968048
229	0x3eb5ace2	0.35483462
230	0xbe5feb65	-0.2186714
231	0x3e62224a	0.22083393
232	0xbd9b2247	-0.07574897
233	0x3f05499a	0.5206543
234	0xbde24e84	-0.11050132
235	0xbf5cf550	-0.8631182
236	0x3ea89ddc	0.32932937
237	0xbd79ba19	-0.060968492
238	0xbeab84cf	-0.33499762
239	0xbe3b6b9b	-0.18302767
240	0xbec3287f	-0.38116834
241	0x3dc9715e	0.09836076
242	0xbf04355e	-0.5164393
243	0xbe2bd373	-0.1677988
244	0x3dad816d	0.08471952
245	0x3ebfe067	0.37475893
246	0xbe496b60	-0.19669867
247	0xbf2b7aff	-0.6698455
248	0xbf1306c1	-0.5743218
249	0xbeb8ed6e	-0.36118644
250	0x3dfb066f	0.122570865
251	0x3e2e3708	0.1701318
252	0xbf3ad522	-0.72981465
253	0xbe06cb00	-0.13163376
254	0xbdc8ea91	-0.09810365
255	0x3daefd20	0.085443735

net.1.running_var f4 [256]
0	0x41c3a319	24.454638
1	0x4368bd0c	232.73846
2	0x434a7626	202.46152
3	0x4209ba47	34.43191
4	0x43f4d245	489.64273
5	0x42512b1f	52.29211
6	0x42516b39	52.35471
7	0x42e78291	115.75501
8	0x41f93912	31.152866
9	0x41e69165	28.820993
10	0x4290c245	72.37943
11	0x4301c770	129.77905
12	0x44208e55	642.22394
13	0x42b602ea	91.00569
14	0x42b02106	88.0645
15	0x4221eaa6	40.47915
16	0x419795c5	18.94813
17	0x4390db78	289.7146
18	0x41ca9c90	25.326447
19	0x42977e8b	75.747154
20	0x427d8c2e	63.386894
21	0x43602707	224.15245
22	0x42bb7a4c	93.73886
23	0x4375b29c	245.6977
24	0x439775ee	302.92133
25	0x4424c36a	659.05334
26	0x41ec25b8	29.518417
27	0x43b69f12	365.24274
28	0x431e3f59	158.24745
29	0x428a200b	69.062584
30	0x43bca934	377.3219
31	0x43101556	144.08334
32	0x449b783e	1243.7576
33	0x42eec63c	119.38718
34	0x43bf9961	383.19827
35	0x418f14fc	17.885246
36	0x42920450	73.00842
37	0x429486f8	74.26361
38	0x4312eec7	146.93272
39	0x41d76902	26.926273
40	0x427b0aac	62.76042
41	0x4243cc48	48.949493
42	0x431b118a	155.06851
43	0x42123c16	36.558678
44	0x429a0eaf	77.02868
45	0x41a76e5d	20.928888
46	0x41f1dc3e	30.23254
47	0x41f14645	30.159311
48	0x436bb624	235.71149
49	0x433473d6	180.45248
50	0x42ee04ed	119.00962
51	0x43e4ea56	457.83075
52	0x435641a0	214.25635
53	0x4367863a	231.52432
54	0x44a11821	1288.754
55	0x42f513a0	122.53833
56	0x4229f748	42.491486
57	0x42b6962b	91.2933
58	0x43a576b3	330.92734
59	0x42e9ae6e	116.84068
60	0x42838800	65.765625
61	0x431f1182	159.06839
62	0x42d1b9b8	104.86273
63	0x42ace97a	86.45601
64	0x4286d967	67.424614
65	0x42f5ce5a	122.90303
66	0x42aebea9	87.37238
67	0x42b6b4d4	91.35318
68	0x43972641	302.29886
69	0x41fd0a24	31.629951
70	0x424f7c54	51.871414
71	0x42ad6077	86.68841
72	0x429202e2	73.00563
73	0x43319fea	177.62466
74	0x4244c569	49.192783
75	0x42eaace4	117.33768
76	0x4387e27b	271.76938
77	0x43138bfd	147.54683
78	0x4362ea28	226.91467
79	0x4350c487	208.76768
80	0x430c58fe	140.34763
81	0x421a1f6c	38.530685
82	0x425c6c1c	55.105576
83	0x4413fb97	591.9311
84	0x4399fb3f	307.96286
85	0x42fa8cbf	125.274895
86	0x44c5abc1	1581.3673
87	0x43a58766	331.0578
88	0x42360558	45.50522
89	0x41a0275b	20.019217
90	0x427c99e5	63.150288
91	0x439279cb	292.9515
92	0x43a5a35a	331.27618
93	0x427e1f3a	63.530495
94	0x43abd7fa	343.68732
95	0x434aa2a4	202.63531
96	0x432683d3	166.51494
97	0x421ef896	39.74276
98	0x42588e38	54.138885
99	0x4325c01d	165.75044
100	0x439bfe99	311.98904
101	0x42b32295	89.56754
102	0x41a77cd2	20.935947
103	0x427ccf67	63.20254
104	0x421bb1b3	38.923534
105	0x432a000b	170.00017
106	0x42211d49	40.2786
107	0x43ecd075	473.62857
108	0x4436529d	729.29083
109	0x4183aea4	16.460274
110	0x43462b7e	198.16989
111	0x4314deea	148.87076
112	0x43cd98b5	411.19302
113	0x42c23dc5	97.12064
114	0x434df161	205.94289
115	0x42ed96e9	118.79475
116	0x41d6ab43	26.833624
117	0x428ec74b	71.389244
118	0x4287b158	67.846375
119	0x43464dcb	198.30388
120	0x4320a951	160.66139
121	0x4393db69	295.71414
122	0x41eb2b55	29.396158
123	0x4330be34	176.74298
124	0x4304063a	132.02432
125	0x41e8bd86	29.09254
126	0x42079372	33.89399
127	0x4325ec2d	165.92256
128	0x4256e335	53.72188
129	0x42e4efeb	114.46859
130	0x41f3e766	30.487988
131	0x43519865	209.59529
132	0x438cca82	281.5821
133	0x4388feab	273.9896
134	0x41823aff	16.278807
135	0x43f3b0cc	487.38123
136	0x44929a85	1172.8287
137	0x4358afcd	216.68672
138	0x41d81c0c	27.013695
139	0x43a0a9d1	321.3267
140	0x4431df9b	711.49384
141	0x42866689	67.200264
142	0x4399e1ff	307.7656
143	0x4305c90d	133.78535
144	0x4388aa46	273.33026
145	0x435c532e	220.32492
146	0x4307897e	135.53708
147	0x43aaac9d	341.34854
148	0x43e9ff83	467.9962
149	0x43f71bc6	494.21698
150	0x41854083	16.6565
151	0x427f57f1	63.83588
152	0x440141c0	517.02734
153	0x42227351	40.612614
154	0x42d71733	107.54531
155	0x41effae9	29.997515
156	0x42c2d0bd	97.40769
157	0x4286974d	67.29551
158	0x4341c72e	193.77805
159	0x43529ee3	210.62065
160	0x431fc958	159.7865
161	0x4323ed4b	163.92693
162	0x438d889c	283.06726
163	0x436f8562	239.52103
164	0x41c5cec2	24.725956
165	0x4479645d	997.5682
166	0x43b6657d	364.79288
167	0x41968c2a	18.81844
168	0x43c86239	400.76736
169	0x42d3315c	105.596405
170	0x4445cf48	791.2388
171	0x4190a1a6	18.07893
172	0x43229d7a	162.61514
173	0x439922e8	306.2727
174	0x427fb765	63.929096
175	0x4156d43a	13.426813
176	0x4260d7aa	56.21061
177	0x420eb26c	35.67424
178	0x42dc9d28	110.306946
179	0x4283e153	65.94009
180	0x43339bc1	179.60841
181	0x43021e86	130.11923
182	0x434e073d	206.02827
183	0x43761369	246.07582
184	0x42c1dfbe	96.937
185	0x4127e5bf	10.49359
186	0x433405cf	180.02269
187	0x42de4ce2	111.15016
188	0x440315a9	524.33844
189	0x428e52bf	71.16161
190	0x42e3a019	113.81269
191	0x4255579a	53.33555
192	0x431b831d	155.51216
193	0x437ae33a	250.8876
194	0x43b357ea	358.68683
195	0x425e5981	55.587406
196	0x4255959d	53.396107
197	0x436dc3f2	237.76541
198	0x40becc35	5.9624276
199	0x441ccaa2	627.16614
200	0x43314cc0	177.2998
201	0x42f6f2ec	123.47446
202	0x42e2f9eb	113.48812
203	0x42ed5200	118.66016
204	0x42fbcce7	125.9002
205	0x41fc287c	31.519768
206	0x424d729c	51.361923
207	0x4222e74c	40.725876
208	0x41d2a00c	26.328148
209	0x42cfb671	103.85633
210	0x428e9eac	71.309906
211	0x4270fb61	60.245487
212	0x4220baf7	40.182583
213	0x43561f55	214.12239
214	0x43257183	165.4434
215	0x41f7901a	30.945362
216	0x4285e8f7	66.95501
217	0x429dbee3	78.872826
218	0x428e66c3	71.20071
219	0x438c7787	280.9338
220	0x43a1280b	322.31284
221	0x41cc57bd	25.542841
222	0x43bc0a19	376.0789
223	0x41e23149	28.274065
224	0x43645f63	228.3726
225	0x4207f430	33.988464
226	0x42ad13a7	86.53838
227	0x41b02db1	22.02231
228	0x424e20c8	51.532013
229	0x415a3e72	13.640245
230	0x42f100e8	120.50177
231	0x42420203	48.501965
232	0x42b808fd	92.017555
233	0x42a4c3c1	82.38233
234	0x41ffcae7	31.974073
235	0x42457fb4	49.37471
236	0x43aad6bc	341.6776
237	0x42f1c02d	120.87534
238	0x4296d9e2	75.42555
239	0x4268a08d	58.156788
240	0x427f7e81	63.87354
241	0x41db7c59	27.435717
242	0x43bdf068	379.87817
243	0x4289fe62	68.99684
244	0x431711d0	151.06958
245	0x430ff439	143.954
246	0x43a40fe2	328.12408
247	0x441bbcfe	622.953
248	0x43ee7154	476.88538
249	0x4185ed51	16.740877
250	0x436e4e7a	238.30655
251	0x41a22256	20.266766
252	0x4482aad7	1045.3387
253	0x428ba40a	69.82039
254	0x42ca15dd	101.0427
255	0x420bd767	34.960354

net.4.weight f4 [128, 256]
0	0x3d5b2671	0.053503457
1	0x3c2629db	0.010141815
2	0xbcae35be	-0.02126586
3	0x3d158233	0.03650112
4	0xbcedb757	-0.029018087
5	0xbd4650a9	-0.048416767
6	0xbc94ecb6	-0.018179279
7	0xbb5d1750	-0.003373582
8	0x3ba98636	0.00517347
9	0x3def8624	0.11695507
10	0xbd391682	-0.04518748
11	0xbd52931e	-0.051409833
12	0xbc11d681	-0.008901239
13	0xbd8e4ed6	-0.069486305
14	0xbdc07e4e	-0.09399091
15	0xbceac81a	-0.028659869
16	0xbc9d4882	-0.019199613
17	0x3d8b3290	0.067967534
18	0x3d0b7799	0.034049604
19	0x3c724ec8	0.014789291
20	0x3dadf45c	0.084938735
21	0xbd53c8e4	-0.051705256
22	0xbc1c0855	-0.009523471
23	0x3d25e030	0.040497005
24	0x3c508c56	0.012728771
25	0xbcc2033c	-0.023683183
26	0x3d9111e3	0.0708349
27	0x3ce18ce5	0.027533004
28	0xbd97d03a	-0.07412763
29	0x3d3c7d20	0.046017766
30	0x3ce3185e	0.02772158
31	0x3c188804	0.009309772
32	0xbd349d84	-0.04409553
33	0xbda21f59	-0.07916135
34	0x3d9295ec	0.071575016
35	0xbdbe26a0	-0.09284711
36	0xbdb408bd	-0.08790729
37	0x3d3b08c2	0.04566265
38	0x3c7944be	0.015214143
39	0xbd98bb15	-0.07457558
40	0xbd41be20	-0.047300458
41	0x3db3fd97	0.08788603
42	0x3d173e50	0.03692466
43	0xbcc4cd19	-0.02402358
44	0xbd8dbd69	-0.06920893
45	0xbd4d2523	-0.050084244
46	0xbc70ffa8	-0.014709391
47	0x3b59cd48	0.003323393
48	0x3d2eb0a5	0.04264893
49	0xbda334fb	-0.079690896
50	0x3d4e751e	0.05040466
51	0x3d9661f6	0.07342903
52	0xbb9aaa63	-0.0047200187
53	0xbd7ea3d5	-0.06216796
54	0x3d257cc2	0.04040218
55	0xbcc01f70	-0.02345249
56	0xbdab2e73	-0.08358469
57	0xbdac1933	-0.08403244
58	0xbdc7272e	-0.0972427
59	0xbde48b9b	-0.1115944
60	0x3c5e8d2d	0.013583464
61	0xbcc903de	-0.024537977
62	0xbcd6e45f	-0.026231943
63	0xbcb0bdf9	-0.021574961
64	0xbde68e20	-0.11257577
65	0x3df4994a	0.119433
66	0x3b11e490	0.0022261478
67	0xbd1cca7a	-0.038279034
68	0xbd781e48	-0.060575753
69	0x3d25085f	0.040291186
70	0x3cdce0c9	0.026962655
71	0x3b8c2c2e	0.0042777276
72	0x3d9c41c4	0.07629731
73	0x3d366af5	0.044535596
74	0xbd1fc026	-0.039001606
75	0x3d6c3fd5	0.057678062
76	0x3c9425f4	0.018084504
77	0xbbfbb846	-0.007681879
78	0xbcbd51ea	-0.023110349
79	0x3d8a0a2a	0.0674022
80	0xbce39db0	-0.027785152
81	0xbc9e8c9f	-0.019354163
82	0xbda82dd3	-0.08211865
83	0xbcddddb9	-0.027083265
84	0xbc58d669	-0.013234713
85	0xbceae0fd	-0.028671736
86	0xba8da0fe	-0.0010805426
87	0x3c9679dc	0.018368654
88	0x3d8fc8ee	0.07020746
89	0x3d8cb39a	0.06870194
90	0x3d77e335	0.060519416
91	0xbe040feb	-0.12896697
92	0xbc1a31fc	-0.009411331
93	0xbd9870aa	-0.07443364
94	0x3d6805b7	0.056646075
95	0xbd1c786a	-0.038200773
96	0xbc23f41c	-0.010006931
97	0xbcd8e5dd	-0.026476795
98	0x3d17c8e7	0.03705683
99	0xbd420315	-0.04736622
100	0xbd36f727	-0.044669297
101	0x3dce1872	0.10063256
102	0xbd24cf0a	-0.04023651
103	0xbce1449c	-0.027498536
104	0xbd94e8f9	-0.072709985
105	0x3cad08da	0.021122385
106	0x3cb89179	0.022530304
107	0xbcd234ec	-0.02566
108	0xbadaf828	-0.0016706036
109	0xb9b1b547	-0.00033895133
110	0xbd28cf29	-0.04121319
111	0x3d006c96	0.031353556
112	0x3c850967	0.016239835
113	0x3d1db295	0.038500387
114	0xbd47d946	-0.048791192
115	0xbd36f6fe	-0.044669144
116	0x3cb582d2	0.022157107
117	0x3b7d8cbc	0.003868862
118	0x3d9a47d7	0.075332336
119	0x3d1d8309	0.038455043
120	0xbc9e0da4	-0.019293614
121	0xbc632844	-0.013864581
122	0xbd240abe	-0.040049307
123	0xbb0d0607	-0.0021518485
124	0x3cf29d9f	0.029616175
125	0xbd8a3db7	-0.067500524
126	0x3a0d1a20	0.0005382616
127	0xbc6cdf0b	-0.014457474
128	0xbca3eb80	-0.020009756
129	0x3d61b2b7	0.055102076
130	0xbd888d5d	-0.06667588
131	0xbb915f14	-0.004436383
132	0xbd4e1d98	-0.05032119
133	0x3d57f8b9	0.052727435
134	0xbd071b1c	-0.032984838
135	0xbd48dd35	-0.049039084
136	0xbb7114f4	-0.003678617
137	0x3b682450	0.0035422035
138	0x3d2a1f41	0.041533712
139	0x3cb10bc9	0.021612065
140	0xbe2051de	-0.1565623
141	0xbd50d883	-0.05098773
142	0x3c8948d6	0.016758364
143	0xbd08dd84	-0.03341438
144	0x3d4d5306	0.050128005
145	0x3d8ad98d	0.06779776
146	0x3d559c5f	0.05215108
147	0xbd33b075	-0.043869454
148	0x3c273d8f	0.010207548
149	0x3c887335	0.016656497
150	0xbd697e51	-0.05700523
151	0xbc72369d	-0.014783529
152	0x3d06a003	0.032867443
153	0x3c036a7e	0.008020995
154	0xbc797747	-0.015226192
155	0x3e000fba	0.12505999
156	0x3d45754c	0.048207566
157	0x3cbd613e	0.023117658
158	0x3b8ae270	0.0042384192
159	0x3d069166	0.032853507
160	0xbcf38500	-0.029726505
161	0x3a9a8970	0.0011790227
162	0xbca4c717	-0.020114465
163	0x3d0c42ba	0.034243323
164	0x3d7f649c	0.062351808
165	0xbda81ae6	-0.082082555
166	0xbcd9d641	-0.026591422
167	0xbcb78573	-0.0224025
168	0xbd4626ab	-0.04837672
169	0x3d87b495	0.0662624
170	0xbdda014c	-0.106447786
171	0x3c04985b	0.008092965
172	0xbd5daa62	-0.054117568
173	0xbd25ffb4	-0.04052706
174	0x3daf775f	0.0856769
175	0xbccbc78b	-0.024875423
176	0xbc2c0918	-0.010500215
177	0x3d0b1353	0.033953976
178	0xbda9541c	-0.08267996
179	0xbd3d39e2	-0.04619778
180	0x3d0f1da4	0.034940377
181	0x3d75c371	0.06000084
182	0x3d7376f1	0.059439603
183	0x3d4e3ffb	0.050353985
184	0xbbddbb2b	-0.006766697
185	0xbdc6c6d4	-0.09705892
186	0xbd0f1b71	-0.03493828
187	0xbc92df05	-0.01792861
188	0xbd891099	-0.06692619
189	0xbde5580f	-0.111984365
190	0xbd75ac18	-0.059978575
191	0xbd8a7dda	-0.067622855
192	0xbcb54e72	-0.022132132
193	0xbc804ff6	-0.015663128
194	0x3dc57c85	0.09642891
195	0xbd9e53ef	-0.07730853
196	0xbc26a25c	-0.010170545
197	0x3d9825d0	0.07429087
198	0xbdd64d2c	-0.10463938
199	0xbd7a7e16	-0.0611554
200	0xbd5b588c	-0.05355124
201	0xbd97f9e7	-0.07420712
202	0xbcf126fc	-0.029437535
203	0xbcf42c66	-0.029806327
204	0x3d636028	0.055511624
205	0x3dade354	0.08490625
206	0xbd051db8	-0.032499045
207	0x3c9cefbb	0.019157281
208	0xbbbea27e	-0.0058177104
209	0x3d8bac47	0.06819969
210	0xbd1745e2	-0.03693188
211	0xbd45ffe9	-0.048339758
212	0x3bcd0dc3	0.006257744
213	0x3dc88522	0.09791018
214	0xbc7c62a4	-0.015404377
215	0x3cb5d28b	0.022195121
216	0x3d1e3797	0.038627233
217	0xbd8b80ed	-0.068117
218	0xbd9fa77d	-0.07795618
219	0x3bee2684	0.007267775
220	0x3d7393b5	0.059467036
221	0xbb523c5b	-0.0032079432
222	0xbdc9a809	-0.09846503
223	0xbd2317bd	-0.03981756
224	0xbd933eae	-0.071896896
225	0x3cceef7a	0.025260676
226	0x3d0467d4	0.03232558
227	0xbd7e1e93	-0.062040877
228	0x3daa578d	0.0831748
229	0xbd0765d2	-0.033056088
230	0xbcffeb5f	-0.031240163
231	0x3e0cf7c9	0.13766398
232	0xbdbd737b	-0.09250542
233	0x3c572cf8	0.01313328
234	0xbcb3dfe7	-0.02195735
235	0xbd8ac7c9	-0.06776387
236	0x3bde9ee0	0.0067938417
237	0x3df2444e	0.11829434
238	0x3c72ba90	0.014814988
239	0xbcfa12c4	-0.030526526
240	0x3bd6a849	0.006550823
241	0x3c321713	0.010869759
242	0xbc20dc40	-0.009818137
243	0x3dac441c	0.08411428
244	0x3d853b95	0.06505505
245	0xbc0dd550	-0.008656815
246	0xbd09e5be	-0.033666365
247	0xbd1f274c	-0.038855836
248	0xbc217294	-0.009853978
249	0xbc048af7	-0.008089772
250	0x3c9be1ec	0.019028626
251	0xbd115e28	-0.035490185
252	0xbda7d895	-0.081956066
253	0xbd52cb73	-0.051463556
254	0xbd3ccc9c	-0.04609357
255	0xbd64b661	-0.055837993

net.4.bias f4 [128]
0	0x3d1e73fa	0.038684823
1	0xbd48f477	-0.049061265
2	0xbc4f647c	-0.012658235
3	0xbd33f432	-0.043934055
4	0xbccbb986	-0.024868738
5	0x3c855113	0.01627401
6	0x3c9ef973	0.019406056
7	0xb99ce75c	-0.00029927015
8	0x3ce2fc07	0.027708067
9	0x3c55edd9	0.013057196
10	0xbcb458ef	-0.022015063
11	0xb80e871c	-3.398127e-05
12	0xbb2c261f	-0.002626784
13	0x3d3bae47	0.0458205
14	0xbd5a778e	-0.053336672
15	0xbc8feee5	-0.017569968
16	0x3b74aacc	0.0037333248
17	0xbd37146e	-0.044697218
18	0xbb190a03	-0.0023351915
19	0xba53eb6e	-0.0008084093
20	0xbc1103d2	-0.0088510085
21	0x3cda8e35	0.026679138
22	0x3cb84256	0.022492569
23	0xbcaf7e09	-0.021422403
24	0x3c209042	0.009800019
25	0x3d0db839	0.034599517
26	0xbc236625	-0.009973084
27	0x3d54c485	0.051945228
28	0xbcec825b	-0.028870752
29	0x3c437949	0.011930772
30	0x3b32b75e	0.002726994
31	0x3c38989d	0.011266855
32	0x3d2cc75d	0.042182315
33	0xbd82adb0	-0.063807845
34	0xbd5a46a5	-0.053290028
35	0x3cb03e65	0.021514127
36	0xbd597405	-0.05308916
37	0x3d568eb4	0.052382186
38	0xbd0d9040	-0.034561396
39	0xbcfe913b	-0.03107511
40	0x3c4ebcca	0.012618253
41	0x3d21145b	0.039326053
42	0x3beb12b1	0.007173859
43	0xbc2a4c1b	-0.0103941215
44	0x3c9158bf	0.017742513
45	0xbca5a52e	-0.020220365
46	0x3c9b2f7b	0.018943539
47	0x3d3e84cb	0.04651336
48	0x3b9fb259	0.0048735556
49	0xbbda2143	-0.006656797
50	0x3d0494f1	0.032368604
51	0xbc1a156f	-0.009404524
52	0x3d480cbf	0.04884028
53	0x3d29bbab	0.04143874
54	0xbcc41699	-0.023936557
55	0xbd735edc	-0.059416637
56	0x3c99af06	0.018760215
57	0xbb98a002	-0.0046577463
58	0xbce50ec0	-0.027961135
59	0xbd71fc42	-0.059078462
60	0x3c3cce0b	0.011523734
61	0xbd175cad	-0.036953617
62	0x3cbdf5a1	0.023188414
63	0xbd0b7585	-0.034047622
64	0x3d00ee4c	0.031477258
65	0x3c0ec8f6	0.008714905
66	0x3afba819	0.0019199877
67	0xbccb801e	-0.024841364
68	0xbc8ab7ca	-0.01693334
69	0xbcc1c8b6	-0.023655277
70	0x3d3976c9	0.045279298
71	0x3ccac0f0	0.024750203
72	0xbd3247cb	-0.0435255
73	0xbd378386	-0.044803165
74	0xbcf93a7b	-0.030423393
75	0x3cf16d1c	0.029470973
76	0x3c7eb60a	0.015546331
77	0x3c8fd234	0.017556287
78	0xbada5c23	-0.0016659539
79	0xbd49939a	-0.04921303
80	0xbd70401f	-0.0586549
81	0xbc18208e	-0.009285105
82	0x3d2279bb	0.039666872
83	0x3d04f008	0.032455474
84	0xbcd491b4	-0.025948383
85	0x3d72acbe	0.05924677
86	0xbcd88f7a	-0.026435602
87	0xbd715e74	-0.05892797
88	0xbc7ddada	-0.015494073
89	0xbcd1ccee	-0.025610413
90	0xbc169528	-0.009190835
91	0x3cecaad3	0.02889005
92	0xbcc04d1a	-0.023474265
93	0xbd668713	-0.05628116
94	0xbd1ec388	-0.038760692
95	0xbcadda75	-0.021222332
96	0x3d390877	0.04517409
97	0xbb6b617b	-0.0035916257
98	0xbb34b555	-0.0027573903
99	0xbd60f322	-0.05491937
100	0xbd4e91b0	-0.050431907
101	0xbd3bc10a	-0.045838393
102	0x3c48c156	0.012253126
103	0x3d2481a8	0.040162712
104	0xbc4dbfb9	-0.012557917
105	0xbd31a5a9	-0.043370876
106	0xbc85ee2f	-0.016348926
107	0xbd42bf5b	-0.047545772
108	0x3b0e39f1	0.0021702016
109	0x3d012279	0.031527016
110	0x3d284325	0.04107966
111	0xbc904aaf	-0.017613737
112	0xbd0136cd	-0.031546403
113	0x3d44ba06	0.04802897
114	0xbcdc3936	-0.026882749
115	0x3b554e01	0.0032547715
116	0x3d410fab	0.047134083
117	0x3b5c1153	0.0033579662
118	0xbd1a94e0	-0.037739635
119	0xbc8780c3	-0.01654089
120	0x3cb17ff3	0.021667456
121	0x3d3de274	0.04635854
122	0xbc883451	-0.016626509
123	0xbca33e7e	-0.01992726
124	0xbd2dd8de	-0.04244315
125	0xbb6d8ca8	-0.0036247168
126	0xbd0e0e04	-0.034681335
127	0xbc9fd47d	-0.019510502
